D1_Swiss_model (3).pth (torch, 4399 bytes, 8 tensors)

encoder.0.weight f4 [2, 4]
000000 f7 a3 22 3e 73 2b c7 be df 50 ba be 48 94 21 be
       0.1588286 -0.38900337 -0.36389825 -0.15779221
000010 e7 e5 c0 3e 00 86 3c be b6 d3 df 3e a6 91 ce 3e
       0.37675402 -0.18410492 0.4371621 0.40345496

encoder.0.bias f4 [2]
000000 a8 30 a0 be 31 b4 88 be
       -0.31287122 -0.26699975

encoder.2.weight f4 [4, 2]
000000 b8 d2 40 be 8d 0a 15 bf fd 03 d9 bd 7a d6 03 bf
       -0.18830383 -0.58219224 -0.10596464 -0.5149914
000010 ae a7 4b be 3a 54 ce be a3 20 fd bd 5a c3 75 bb
       -0.19888183 -0.40298635 -0.123597406 -0.0037500472

encoder.2.bias f4 [4]
000000 4a 3e cd 3e 43 d6 8f 3e d6 8e 8c 3d e3 cf 89 be
       0.40086585 0.28093156 0.06863181 -0.26916417

decoder.0.weight f4 [2, 4]
000000 57 ab bb be ad 91 2f bd 2c 46 cb bc 05 50 ef 3e
       -0.3665416 -0.042863537 -0.024813734 0.46740738
000010 63 9a 15 3e d1 61 10 3e b9 66 34 3e 2b 27 e0 be
       0.14609675 0.14099814 0.1761731 -0.43779883

decoder.0.bias f4 [2]
000000 43 e2 ac be ae c3 ea be
       -0.33766374 -0.45852417

decoder.2.weight f4 [4, 2]
000000 e6 e3 10 3f 7d fe 51 be 05 1f b4 3e 55 e5 41 be
       0.56597745 -0.20507236 0.35179916 -0.1893514
000010 67 4c 9c 3e 86 be 05 bf 73 3a 02 bf 58 ec 1b 3f
       0.3052704 -0.5224384 -0.50870436 0.60907507

decoder.2.bias f4 [4]
000000 4f 2a df 3e 3a 3d a2 bd 7f 0b e3 bd 61 08 87 be
       0.43586966 -0.07921834 -0.11086177 -0.2637358
