D2_Cultural_model (2).pth (torch, 4761 bytes, 8 tensors)

encoder.0.weight f4 [5, 4]
0	0x3eb82b0c	0.35970342
1	0xbe7cfb74	-0.24705297
2	0x3f0b37a4	0.54381776
3	0x3e7e1411	0.24812342
4	0x3ea1946b	0.31558546
5	0x3da8d7b2	0.082442656
6	0x3effec76	0.49985093
7	0xbda67b28	-0.08128959
8	0xbe368fd3	-0.17828302
9	0x393c5b60	0.00017963117
10	0x3b020d25	0.001984426
11	0x3e04e699	0.12978591
12	0xbf1bea8e	-0.6090478
13	0x3e5ae73d	0.21377273
14	0x3efc8cd5	0.49326196
15	0x3e929f18	0.28637004
16	0xbf03ac3b	-0.5143468
17	0xbec67f41	-0.38768962
18	0x3ebb8957	0.3662822
19	0xbdc1e375	-0.09467212

encoder.0.bias f4 [5]
0	0x3be1f660	0.0068958253
1	0x3efb9023	0.49133405
2	0xbe5e28d2	-0.21695259
3	0x3dd5b6c6	0.10435252
4	0xbe81124e	-0.25209278

encoder.2.weight f4 [3, 5]
0	0x3ea5a2e5	0.3235084
1	0x3de05d33	0.10955276
2	0x3e13b89a	0.14425889
3	0xbdff1eb4	-0.12457028
4	0xbe2dfc8d	-0.16990872
5	0xbef0380f	-0.4691777
6	0xbe02bab0	-0.12766528
7	0xbe63b65d	-0.22237535
8	0xbea8b006	-0.32946795
9	0xbf00be86	-0.50290716
10	0x3ec00fe6	0.3751213
11	0x3da4945c	0.0803611
12	0xbe1c5516	-0.15266833
13	0x3eae0c31	0.33993676
14	0xbe675655	-0.22591527

encoder.2.bias f4 [3]
0	0xbef586a9	-0.479543
1	0xbebdfcf3	-0.37107047
2	0xbec5c9b2	-0.38630444

decoder.0.weight f4 [5, 3]
0	0x3bc84872	0.006112152
1	0x3e4959c2	0.19663146
2	0x3ebc01e5	0.36720195
3	0x3e8cd84e	0.27508777
4	0xbf130a91	-0.57438
5	0x3bd2faf9	0.0064386097
6	0x3e1a87e3	0.15090899
7	0xbe07e256	-0.13269934
8	0x3d37192a	0.044701733
9	0xbeb6de0d	-0.35716286
10	0x3d50c62b	0.050970238
11	0x3f0b702d	0.5446804
12	0x3ebbfcc0	0.3671627
13	0x3ed3b257	0.41347
14	0x3e1af995	0.1513427

decoder.0.bias f4 [5]
0	0xbd37848f	-0.044804152
1	0x3ee0922d	0.43861523
2	0xbe6feb4d	-0.23429604
3	0x3f1e6a0a	0.6188055
4	0x3eaef1e3	0.3416892

decoder.2.weight f4 [4, 5]
0	0xbc95746e	-0.018243995
1	0xbef1295d	-0.4710187
2	0x3d1aaa78	0.037760228
3	0x3e225269	0.1585175
4	0x3ec229ea	0.37922603
5	0x3e6df988	0.2323972
6	0x3d111d35	0.035428245
7	0xbeb84b55	-0.35994974
8	0xbda280c7	-0.079347186
9	0xbe6ede50	-0.23326993
10	0xbe88a982	-0.26691824
11	0x3dc62172	0.09674348
12	0x3ee45a8d	0.44600335
13	0x3ea0395f	0.3129377
14	0xbe7f2f06	-0.24920282
15	0x3eab07fd	0.33404532
16	0xbe7bf9e5	-0.24607046
17	0xbd448cb1	-0.047985736
18	0xbe461664	-0.19344479
19	0x3c3dcf87	0.011585123

decoder.2.bias f4 [4]
0	0x3d71d87d	0.05904435
1	0x3e7e4bac	0.24833554
2	0xbe905481	-0.2818947
3	0x3e95b113	0.2923666
