D3_Academic_model (2).pth (torch, 4697 bytes, 8 tensors)

encoder.0.weight f4 [7, 4]
000000 f1 69 84 3e f1 7c 9f be 68 e7 5d be 4f 97 15 bd
       0.25862077 -0.3115001 -0.21670306 -0.036521252
000010 f5 bb 37 3e 2d 59 4e bd 67 1c 72 be da 45 df 3e
       0.17942794 -0.050378013 -0.23643647 0.4360798
000020 97 30 6a 3e e2 2a e2 3e 37 bf c2 3d 07 7a bb 3e
       0.22870098 0.44173342 0.095091276 0.36616537
000030 4c 3d 5b 3d a7 52 a5 3c af 9b f9 be 58 1a dd be
       0.053525254 0.020181013 -0.4875159 -0.4318416
000040 c5 cb 11 3d 9b 6c cb 3d ae d4 cb 3e 09 a8 17 3e
       0.03559472 0.09932824 0.398107 0.14810194
000050 b8 21 a1 bd 48 49 d6 3e 74 a5 c9 be bd 2b 0e 3d
       -0.078677595 0.41852784 -0.39384043 0.03470968
000060 e4 b5 9e 3e 63 32 92 3e 14 03 cf 3e f6 d9 ce 3d
       0.30998147 0.28554067 0.40432036 0.101001665

encoder.0.bias f4 [7]
000000 19 9e cf be 75 53 04 bd 55 aa a2 bd 84 0f a0 be
       -0.40550306 -0.032306153 -0.079426445 -0.31261837
000010 81 cc 70 3e 80 c1 36 be ac 28 f8 bc
       0.23515512 -0.17847252 -0.030292831

encoder.2.weight f4 [2, 7]
000000 cb 41 98 be 5c be 7c bd 01 c0 bf be eb 53 24 bd
       -0.29737696 -0.06170498 -0.37451175 -0.040119093
000010 b8 9c b1 be 73 e3 48 be 45 3b 78 be 2a a6 24 3e
       -0.3468988 -0.19618015 -0.2424136 0.16079012
000020 36 24 19 3d 97 19 3b 3e 3c 61 1d be c6 04 69 be
       0.03738805 0.1827148 -0.15369123 -0.22755727
000030 28 2f 8f bd 3b ad 56 3d
       -0.06991416 0.0524113

encoder.2.bias f4 [2]
000000 a7 08 e4 bd 30 15 fe 3d
       -0.11134463 0.12406385

decoder.0.weight f4 [7, 2]
000000 62 93 e3 3e 58 6f 9b 3e 6a f5 3f 3e e4 e6 03 bf
       0.44448382 0.30358386 0.18745962 -0.51524186
000010 07 be 4a 3e 61 a5 ba bd bc 94 96 bd 42 af 5f be
       0.19799052 -0.09113575 -0.073525876 -0.218442
000020 ce f9 2a 3f 27 d4 55 be e1 e6 95 be 78 ac 88 be
       0.6678742 -0.20881711 -0.2927771 -0.26694083
000030 04 7c 40 3d 26 a2 31 3f
       0.04699327 0.69388044

decoder.0.bias f4 [7]
000000 02 8d b4 be 84 17 32 bf c7 4e cb bd 70 70 20 be
       -0.3526383 -0.6956713 -0.09927135 -0.15667892
000010 7c cb 27 3e 93 25 d5 3e 5d 0c 40 3e
       0.16386217 0.4163023 0.18754716

decoder.2.weight f4 [4, 7]
000000 32 ab 57 3e 6f c4 3e 3e fc 92 05 3e 3a 55 1d 3e
       0.210614 0.18629621 0.13044351 0.15364543
000010 e1 09 71 bc ee d1 08 be ed c6 6a 3e 77 56 8c be
       -0.014711828 -0.13361332 0.22927447 -0.27409717
000020 3d d6 d0 be 87 35 a6 3e 8e e0 23 3e e1 cf c2 be
       -0.4078845 0.32462713 0.1600363 -0.38049224
000030 81 2b 80 3e 0a 7a fd 3c 95 f1 70 3e 48 d7 42 bd
       0.2503319 0.030941982 0.23529656 -0.04756859
000040 8b ec 76 3d 7f 66 9a be 46 cd e3 be 11 12 3a 3e
       0.06028418 -0.30156323 -0.4449255 0.18170954
000050 a3 d0 1d be a8 32 53 be c3 d1 75 be 56 63 9b 3e
       -0.1541162 -0.20624793 -0.24005799 0.30349225
000060 06 9c 56 3e 00 ce a6 3e bd 50 88 be f7 fc bd 3b
       0.20957956 0.3257904 -0.26624098 0.005797978

decoder.2.bias f4 [4]
000000 e8 07 92 be 24 74 12 bd 86 d2 43 3e 09 98 55 bd
       -0.28521657 -0.03575529 0.19123277 -0.052146945
