D4_Tech_model (2).pth (torch, 4385 bytes, 8 tensors)

encoder.0.weight f4 [3, 4]
-0.6119181 0.050990462 0.51886296 -0.09236831 -0.25767785 0.050365303 0.058469817 -0.47644922
-0.025528122 -0.18423866 -0.45346662 0.47118363
00000000: aaa6 1cbf 60db 503d 34d4 043f 992b bdbd
00000010: 5aee 83be d94b 4e3d 0c7e 6f3d 27f1 f3be
00000020: 5a20 d1bc 0fa9 3cbe c72c e8be fb3e f13e

encoder.0.bias f4 [3]
0.238713 -0.26074967 0.31082827
00000000: 2e71 743e fb80 85be e224 9f3e

encoder.2.weight f4 [3, 3]
0.30420312 0.8121852 -0.487413 0.25375998 0.60402906 -0.43164054 -0.851415 -0.17951904
-0.029632958
00000000: 83c0 9b3e 5feb 4f3f 328e f9be d4ec 813e
00000010: a6a1 1a3f fdff dcbe 55f6 59bf d7d3 37be
00000020: d1c0 f2bc

encoder.2.bias f4 [3]
-0.27784184 -0.16370413 -0.11645422
00000000: 4941 8ebe 0ea2 27be 8d7f eebd

decoder.0.weight f4 [3, 3]
0.23330574 0.6816666 0.1315198 0.5743146 0.3897989 0.33571053 0.1659494 0.48518446
-0.625226
00000000: b3e7 6e3e b481 2e3f 20ad 063e 4806 133f
00000010: b993 c73e 40e2 ab3e a4ee 293e 196a f83e
00000020: d00e 20bf

decoder.0.bias f4 [3]
0.41529068 0.57964313 0.11417978
00000000: fba0 d43e 7e63 143f 17d7 e93d

decoder.2.weight f4 [4, 3]
-0.4168483 0.43101948 -0.49809176 0.22075434 -0.0038080858 -0.1372197 0.21857022 0.38495007
0.39923832 -0.27485642 -0.86048615 -0.2749147
00000000: 246d d5be 96ae dc3e e205 ffbe 6d0d 623e
00000010: 1491 79bb 5283 0cbe dfd0 5f3e 2d18 c53e
00000020: f768 cc3e fbb9 8cbe d248 5cbf 9fc1 8cbe

decoder.2.bias f4 [4]
-0.07177104 0.277963 -0.014076543 0.23141372
00000000: b2fc 92bd 2b51 8e3e 4da1 66bc b8f7 6c3e
