d1-artifacts/D1_Swiss_model (4).pth (torch, 4463 bytes, 8 tensors)

encoder.0.weight f4 [2, 4]
00000000: 7401 863e 74da d63e fb3a 5abe f30b febe
00000010: 712b 1d3e 5a7b d13e 7b8d 14bd a9bb 8b3e
0.26172984 0.41963542 -0.21311562 -0.49618492 0.15348603 0.40914422 -0.03626774 0.2729161

encoder.0.bias f4 [2]
00000000: 8d3b 25be 0043 c8be
-0.16135998 -0.39113617

encoder.2.weight f4 [4, 2]
00000000: b4b0 073f ddd0 39bf 5081 043f fd5a 6fbc
00000010: a99d bcbe 86b3 8fbe 494a 363e ebca b6be
0.53004 -0.72584325 0.51759815 -0.014609096 -0.36839035 -0.28066653 0.17801775 -0.3570169

encoder.2.bias f4 [4]
00000000: 1889 123e 48c9 233e a71b adbe e190 a43e
0.1431011 0.15994751 -0.3381016 0.32141784

decoder.0.weight f4 [2, 4]
00000000: 0e53 e5be cea3 6bbd 43ed 883d 1968 13be
00000010: c189 1dbe 94a9 1e3e ce7a 4c3e ea8e 0dbe
-0.44789928 -0.057529263 0.06685879 -0.14395179 -0.1538458 0.15494376 0.19968721 -0.13824049

decoder.0.bias f4 [2]
00000000: e2bc f1bc 0734 963d
-0.029509012 0.07334142

decoder.2.weight f4 [4, 2]
00000000: e119 67be a7f4 2f3f 6d18 b13e 3690 c03e
00000010: 4fde 203f 5f76 263f f25f 303e 9434 d13e
-0.22568466 0.68732685 0.34588948 0.37610024 0.62839216 0.6502437 0.172241 0.40860426

decoder.2.bias f4 [4]
00000000: 9d17 b6bd 796e e6bd 2b26 13be db4c 9d3e
-0.088912226 -0.1125154 -0.14370029 0.307227
