d3-artifacts/D3_Academic_model (3).pth (torch, 4761 bytes, 8 tensors)

encoder.0.weight f4 [7, 4]
0	0x3e38a85f	0.18032978
1	0xbe0de9ff	-0.13858794
2	0x3dea6253	0.11444535
3	0x3e89b62e	0.26896805
4	0xbe7eff88	-0.24902165
5	0xbeca3a0f	-0.3949742
6	0x3e3da707	0.18520747
7	0xbe0ff76e	-0.1405923
8	0x3e131bb6	0.1436604
9	0xbe8019ad	-0.2501959
10	0x3eca6a33	0.3953415
11	0xbe01bb20	-0.12669039
12	0xbb8a6c60	-0.004224345
13	0x3dcb11b7	0.09915488
14	0x3eeea7e7	0.46612474
15	0x3ec0ae60	0.37633038
16	0xbec2822f	-0.37989947
17	0xbc330a7d	-0.010927794
18	0xbebe15fe	-0.37126154
19	0xbe864aad	-0.26228848
20	0x3efe2d85	0.49644104
21	0x3da0c0b5	0.07849256
22	0xbe50c1a5	-0.2038637
23	0x3e0dd0fb	0.13849251
24	0xbe1644c8	-0.14674675
25	0xbe553ecc	-0.20824736
26	0xbe0f9006	-0.14019784
27	0xbe9a4be3	-0.30136022

encoder.0.bias f4 [7]
0	0x3e3149f4	0.17313367
1	0xbe2d0f2e	-0.16900322
2	0xbe4df947	-0.20114623
3	0xbebfb3e3	-0.3744193
4	0xbe5ed704	-0.2176171
5	0xbd272b7f	-0.040812965
6	0x3daf0e7e	0.08547686

encoder.2.weight f4 [2, 7]
0	0xbeb05ebb	-0.34447274
1	0xbe429cc7	-0.19005118
2	0xbe7ce18c	-0.24695414
3	0xbe435b5c	-0.1907782
4	0x3df60be3	0.12013986
5	0x3eb90fee	0.36144966
6	0xbe983897	-0.29730675
7	0x3e5ddb40	0.21665668
8	0x3e2f8f3f	0.17144488
9	0xbe77982f	-0.24179147
10	0xbe743563	-0.2384849
11	0x3e5c1898	0.21493757
12	0xbe34e1c8	-0.17664254
13	0x3e6d3763	0.2316566

encoder.2.bias f4 [2]
0	0xbe315392	-0.17317036
1	0xbe148e86	-0.14507493

decoder.0.weight f4 [7, 2]
0	0xbe89939f	-0.26870438
1	0x3ead479d	0.338437
2	0xbb58c196	-0.003307437
3	0xbf035ab6	-0.5131029
4	0x3e2803ed	0.16407748
5	0xbd2cdde0	-0.042203784
6	0xbe5dc551	-0.21657301
7	0x3e017085	0.12640579
8	0xbe8c1c73	-0.27365455
9	0x3d7feaed	0.062479902
10	0x3ef9317b	0.48670563
11	0x3d9f02dc	0.07764217
12	0x3ee8d3dd	0.4547414
13	0xbf2e3b0a	-0.68058836

decoder.0.bias f4 [7]
0	0x3e329685	0.17440231
1	0x3ef2aaa5	0.47395816
2	0xbee3b76d	-0.4447588
3	0x3ea3ad4d	0.31968156
4	0xbe26e15d	-0.16296907
5	0x3f0f2441	0.55914694
6	0xbd59affd	-0.05314635

decoder.2.weight f4 [4, 7]
0	0xbe0185df	-0.12648724
1	0x3e21db71	0.15806367
2	0xbe4d0ce2	-0.20024446
3	0xbd4ed2d8	-0.050494045
4	0xbe6d0aca	-0.23148647
5	0x3e58d4c5	0.21174915
6	0x3e2d82f3	0.16944484
7	0x3e83daa8	0.2575276
8	0xbd856a19	-0.06514377
9	0xbdbc3f47	-0.09191757
10	0xbc5d200b	-0.013496409
11	0xbe96697e	-0.2937736
12	0x3dab91f9	0.083774514
13	0xbe000bac	-0.12504452
14	0x3e85cb79	0.261318
15	0xbe0763c0	-0.13221645
16	0xbe7c3b63	-0.24632029
17	0x3ec60d24	0.386819
18	0xbce2dac9	-0.027692216
19	0xbe7ab117	-0.24481617
20	0x3ec1da46	0.37861842
21	0x3e86f453	0.2635828
22	0xbe94622d	-0.28981152
23	0x3ea2ae5a	0.31773645
24	0xbeb2b82d	-0.3490614
25	0x3e2b7a25	0.16745813
26	0xbe730e53	-0.23735933
27	0x3e7a88b5	0.24466212

decoder.2.bias f4 [4]
0	0x3bd6b5cd	0.006552434
1	0x3dbc1926	0.09184484
2	0xbe6292a8	-0.22126257
3	0x3d8b9ba4	0.068167955
