d2-artifacts/D2_Cultural_model (3).pth (torch, 4825 bytes, 8 tensors)

encoder.0.weight f4 [5, 4]
00000000: 856f 4a3e a996 923b 221d 98be eef4 9ebe
00000010: ae49 93be b4ca ecbe 73a7 683e bd5b e63e
00000020: 8835 7dbe 8464 533d 9faf b63c 17aa 793e
00000030: c031 b7be 6b21 9d3d ab0c de3d 79fb 113f
00000040: f5fa e53e 84f2 7b3d efef 3dbe a171 b33e
0.19769104 0.0044735265 -0.29709727 -0.31046242 -0.2876715 -0.462484 0.22720127 0.44991866
-0.24727452 0.05160953 0.02230054 0.2438129 -0.35780144 0.076723896 0.1084226 0.5702434
0.44918028 0.061510578 -0.18548559 0.3504763

encoder.0.bias f4 [5]
00000000: eee3 033f 3dad a1bc 256f 67be af73 0b3f
00000010: d633 573d
0.5151967 -0.019735927 -0.22600992 0.54473394 0.05253967

encoder.2.weight f4 [3, 5]
00000000: 9a47 9bbe 5fea fe3d 7de4 c53e 9d90 b4bd
00000010: b6c9 bdbe 7e30 05bc 334c 053f 3b80 61be
00000020: e9fc e73e 3108 84be 05b1 de3e a144 b8be
00000030: 36ef f43e 3486 0f3e b52f f1bd
-0.30328065 0.124470465 0.38650885 -0.08816645 -0.37067956 -0.008129237 0.52069396 -0.22021572
0.45310143 -0.257875 0.4349443 -0.3598986 0.47838753 0.14016038 -0.117766775

encoder.2.bias f4 [3]
00000000: cefb d8be 6e9f f63e e626 3bbd
-0.42379612 0.4816851 -0.045691393

decoder.0.weight f4 [5, 3]
00000000: c8f8 cbbe 9b2b 1a3c df82 92be 2834 cebe
00000010: dd84 5e3e 8bf0 a53e 9205 aebe 3c5c 07bf
00000020: 3b0d e4be ec53 11bf c7ea 9dbe 93c9 04bd
00000030: f1b0 a4be e23e cc3c 7360 263f
-0.39838243 0.00940981 -0.28615472 -0.40274167 0.21730371 0.32410082 -0.33988625 -0.52875113
-0.44541344 -0.5676868 -0.30843183 -0.0324188 -0.32166246 0.024932329 0.6499092

decoder.0.bias f4 [5]
00000000: 12cc d0be 0b76 8d3e 0033 14bf 6bd6 da3b
00000010: 9970 943c
-0.40780693 0.27629122 -0.5789032 0.0066783926 0.018120097

decoder.2.weight f4 [4, 5]
00000000: 5626 7cbe e298 b03e 3774 dd3e d92b d33e
00000010: c981 bcbe 1d45 923e ff0a 583e 6b80 94be
00000020: a486 92bb 7b31 6e3e 8636 9b3e c8e3 7dbe
00000030: 9e05 a73d c37c 8cbe 4f6f 5b3e a767 d63d
00000040: 4926 e33e 79aa a7be a4a4 863d 0b45 11be
-0.24623999 0.3449164 0.43252727 0.4124439 -0.36817768 0.28568354 0.21097945 -0.29004225
-0.004471617 0.23261063 0.30315036 -0.24793923 0.08155368 -0.27438936 0.2142918 0.10468989
0.44365147 -0.32747248 0.065743715 -0.14186494

decoder.2.bias f4 [4]
00000000: fa04 91be 97dd 93be 1f17 9a3d 3e9b 83be
-0.2832411 -0.28879997 0.07523941 -0.25704378
