d4-artifacts/D4_Tech_model (3).pth (torch, 4449 bytes, 8 tensors)

encoder.0.weight f4 [3, 4]
000000 f7 19 df be b4 b6 61 3e ce db 9f be 13 b7 20 3d
       -0.43574497 0.22042352 -0.31222385 0.039237093
000010 fa 30 c5 3d b1 7c 07 bf 7f 21 b8 3e 48 89 0a bf
       0.09628482 -0.5292464 0.35963055 -0.54115725
000020 7e 0b ef 3d a0 4f fa be 5e 23 97 3e e7 65 03 bf
       0.11672114 -0.48888874 0.2951917 -0.51327366

encoder.0.bias f4 [3]
000000 24 0b e1 3e ae b2 97 be e7 40 1c 3f
       0.43953812 -0.2962851 0.61036533

encoder.2.weight f4 [3, 3]
000000 23 be 2d 3e db d2 02 3f 6d 58 cd be 74 74 4b be
       0.16967063 0.5110299 -0.40106526 -0.19868642
000010 3f 69 0e 3f 8c 61 fd 3e 0c a0 24 3f c2 98 0c be
       0.5562934 0.49488485 0.6430671 -0.13730147
000020 49 83 fd be
       -0.49514225

encoder.2.bias f4 [3]
000000 8a 15 91 3e 10 c6 3c 3f f9 0a 9c 3e
       0.28336746 0.7373972 0.3047712

decoder.0.weight f4 [3, 3]
000000 e7 31 f0 3e 58 a9 51 be 21 cd ba be 30 76 ae 3e
       0.46913072 -0.20474756 -0.36484626 0.34074545
000010 4a 8d 40 3f 9b f9 1e bf bd e2 12 bf 25 28 9b bd
       0.7521559 -0.6209962 -0.57377225 -0.07576016
000020 b1 2c b2 3d
       0.086999305

decoder.0.bias f4 [3]
000000 4c 20 66 3e 53 05 0d be 64 8f a4 be
       0.22473258 -0.13771562 -0.32140648

decoder.2.weight f4 [4, 3]
000000 a0 d8 1b 3f 34 98 81 3e 4a 5f 13 bf e1 25 2c 3e
       0.6087742 0.25311434 -0.57567275 0.16811325
000010 03 b4 d1 be cd ba 3f be a4 a1 12 3d 76 c0 e3 3e
       -0.4095765 -0.18723603 0.035798684 0.44482774
000020 8d 75 0c bf ae 3b 5f be 71 e2 ca be f0 37 8a 3e
       -0.5486687 -0.2180011 -0.39625886 0.26995802

decoder.2.bias f4 [4]
000000 4d 77 96 3d dd fa a2 3e 96 b9 5c be 2b af c0 3d
       0.073469736 0.31832018 -0.2155517 0.09408411
